…
I0929 09:53:42.930711 29621 net.cpp:294] The NetState phase (0) differed from the phase (1) specified by a rule in layer accuracy
I0929 09:53:42.930840 29621 net.cpp:51] Initializing net from parameters: 
name: "pulmonaryNodulesNet"
state {
  phase: TRAIN
  level: 0
  stage: ""
}
layer {
  name: "data"
  type: "Data"
  top: "data"
  top: "label"
  include {
    phase: TRAIN
  }
  transform_param {
    mirror: true
    crop_size: 224
    mean_file: "data/pulmonary_nodules/pulmonary_nodules_net_mean.binaryproto"
  }
  data_param {
    source: "examples/pulmonary_nodules_net/pulmonary_nodules_train_lmdb"
    batch_size: 128
    backend: LMDB
  }
}
layer {
  name: "conv1"
  type: "Convolution"
  bottom: "data"
  top: "conv1"
  param {
    lr_mult: 1
    decay_mult: 1
  }
  param {
    lr_mult: 2
    decay_mult: 0
  }
  convolution_param {
    num_output: 96
    kernel_size: 11
    stride: 4
    weight_filler {
      type: "gaussian"
      std: 0.01
    }
    bias_filler {
      type: "constant"
      value: 0
    }
  }
}
layer {
  name: "relu1"
  type: "ReLU"
  bottom: "conv1"
  top: "conv1"
}
layer {
  name: "pool1"
  type: "Pooling"
  bottom: "conv1"
  top: "pool1"
  pooling_param {
    pool: MAX
    kernel_size: 3
    stride: 2
  }
}
layer {
  name: "norm1"
  type: "LRN"
  bottom: "pool1"
  top: "norm1"
  lrn_param {
    local_size: 5
    alpha: 0.0001
    beta: 0.75
  }
}
layer {
  name: "conv2"
  type: "Convolution"
  bottom: "norm1"
  top: "conv2"
  param {
    lr_mult: 1
    decay_mult: 1
  }
  param {
    lr_mult: 2
    decay_mult: 0
  }
  convolution_param {
    num_output: 256
    pad: 2
    kernel_size: 5
    group: 2
    weight_filler {
      type: "gaussian"
      std: 0.01
    }
    bias_filler {
      type: "constant"
      value: 1
    }
  }
}
layer {
  name: "relu2"
  type: "ReLU"
  bottom: "conv2"
  top: "conv2"
}
layer {
  name: "pool2"
  type: "Pooling"
  bottom: "conv2"
  top: "pool2"
  pooling_param {
    pool: MAX
    kernel_size: 3
    stride: 2
  }
}
layer {
  name: "norm2"
  type: "LRN"
  bottom: "pool2"
  top: "norm2"
  lrn_param {
    local_size: 5
    alpha: 0.0001
    beta: 0.75
  }
}
layer {
  name: "conv3"
  type: "Convolution"
  bottom: "norm2"
  top: "conv3"
  param {
    lr_mult: 1
    decay_mult: 1
  }
  param {
    lr_mult: 2
    decay_mult: 0
  }
  convolution_param {
    num_output: 384
    pad: 1
    kernel_size: 3
    weight_filler {
      type: "gaussian"
      std: 0.01
    }
    bias_filler {
      type: "constant"
      value: 0
    }
  }
}
layer {
  name: "relu3"
  type: "ReLU"
  bottom: "conv3"
  top: "conv3"
}
layer {
  name: "conv4"
  type: "Convolution"
  bottom: "conv3"
  top: "conv4"
  param {
    lr_mult: 1
    decay_mult: 1
  }
  param {
    lr_mult: 2
    decay_mult: 0
  }
  convolution_param {
    num_output: 384
    pad: 1
    kernel_size: 3
    group: 2
    weight_filler {
      type: "gaussian"
      std: 0.01
    }
    bias_filler {
      type: "constant"
      value: 1
    }
  }
}
layer {
  name: "relu4"
  type: "ReLU"
  bottom: "conv4"
  top: "conv4"
}
layer {
  name: "conv5"
  type: "Convolution"
  bottom: "conv4"
  top: "conv5"
  param {
    lr_mult: 1
    decay_mult: 1
  }
  param {
    lr_mult: 2
    decay_mult: 0
  }
  convolution_param {
    num_output: 256
    pad: 1
    kernel_size: 3
    group: 2
    weight_filler {
      type: "gaussian"
      std: 0.01
    }
    bias_filler {
      type: "constant"
      value: 1
    }
  }
}
layer {
  name: "relu5"
  type: "ReLU"
  bottom: "conv5"
  top: "conv5"
}
layer {
  name: "pool5"
  type: "Pooling"
  bottom: "conv5"
  top: "pool5"
  pooling_param {
    pool: MAX
    kernel_size: 3
    stride: 2
  }
}
layer {
  name: "fc6"
  type: "InnerProduct"
  bottom: "pool5"
  top: "fc6"
  param {
    lr_mult: 1
    decay_mult: 1
  }
  param {
    lr_mult: 2
    decay_mult: 0
  }
  inner_product_param {
    num_output: 4096
    weight_filler {
      type: "gaussian"
      std: 0.005
    }
    bias_filler {
      type: "constant"
      value: 1
    }
  }
}
layer {
  name: "relu6"
  type: "ReLU"
  bottom: "fc6"
  top: "fc6"
}
layer {
  name: "drop6"
  type: "Dropout"
  bottom: "fc6"
  top: "fc6"
  dropout_param {
    dropout_ratio: 0.5
  }
}
layer {
  name: "fc7"
  type: "InnerProduct"
  bottom: "fc6"
  top: "fc7"
  param {
    lr_mult: 1
    decay_mult: 1
  }
  param {
    lr_mult: 2
    decay_mult: 0
  }
  inner_product_param {
    num_output: 4096
    weight_filler {
      type: "gaussian"
      std: 0.005
    }
    bias_filler {
      type: "constant"
      value: 1
    }
  }
}
layer {
  name: "relu7"
  type: "ReLU"
  bottom: "fc7"
  top: "fc7"
}
layer {
  name: "drop7"
  type: "Dropout"
  bottom: "fc7"
  top: "fc7"
  dropout_param {
    dropout_ratio: 0.5
  }
}
layer {
  name: "fc8"
  type: "InnerProduct"
  bottom: "fc7"
  top: "fc8"
  param {
    lr_mult: 1
    decay_mult: 1
  }
  param {
    lr_mult: 2
    decay_mult: 0
  }
  inner_product_param {
    num_output: 1000
    weight_filler {
      type: "gaussian"
      std: 0.01
    }
    bias_filler {
      type: "constant"
      value: 0
    }
  }
}
layer {
  name: "loss"
  type: "SoftmaxWithLoss"
  bottom: "fc8"
  bottom: "label"
  top: "loss"
}
I0929 09:53:42.930938 29621 layer_factory.hpp:77] Creating layer data
I0929 09:53:42.931026 29621 db_lmdb.cpp:35] Opened lmdb examples/pulmonary_nodules_net/pulmonary_nodules_train_lmdb
I0929 09:53:42.931046 29621 net.cpp:84] Creating Layer data
I0929 09:53:42.931054 29621 net.cpp:380] data -> data
I0929 09:53:42.931077 29621 net.cpp:380] data -> label
I0929 09:53:42.931089 29621 data_transformer.cpp:25] Loading mean file from: data/pulmonary_nodules/pulmonary_nodules_net_mean.binaryproto
I0929 09:53:42.933023 29621 data_layer.cpp:45] output data size: 128,3,224,224
I0929 09:53:43.044580 29621 net.cpp:122] Setting up data
I0929 09:53:43.044610 29621 net.cpp:129] Top shape: 128 3 224 224 (19267584)
I0929 09:53:43.044615 29621 net.cpp:129] Top shape: 128 (128)
I0929 09:53:43.044620 29621 net.cpp:137] Memory required for data: 77070848
I0929 09:53:43.044627 29621 layer_factory.hpp:77] Creating layer conv1
I0929 09:53:43.044646 29621 net.cpp:84] Creating Layer conv1
I0929 09:53:43.044652 29621 net.cpp:406] conv1 <- data
I0929 09:53:43.044664 29621 net.cpp:380] conv1 -> conv1
I0929 09:53:43.434604 29621 net.cpp:122] Setting up conv1
I0929 09:53:43.434633 29621 net.cpp:129] Top shape: 128 96 54 54 (35831808)
I0929 09:53:43.434638 29621 net.cpp:137] Memory required for data: 220398080
I0929 09:53:43.434653 29621 layer_factory.hpp:77] Creating layer relu1
I0929 09:53:43.434665 29621 net.cpp:84] Creating Layer relu1
I0929 09:53:43.434670 29621 net.cpp:406] relu1 <- conv1
I0929 09:53:43.434677 29621 net.cpp:367] relu1 -> conv1 (in-place)
I0929 09:53:43.434984 29621 net.cpp:122] Setting up relu1
I0929 09:53:43.434993 29621 net.cpp:129] Top shape: 128 96 54 54 (35831808)
I0929 09:53:43.434998 29621 net.cpp:137] Memory required for data: 363725312
I0929 09:53:43.435001 29621 layer_factory.hpp:77] Creating layer pool1
I0929 09:53:43.435010 29621 net.cpp:84] Creating Layer pool1
I0929 09:53:43.435014 29621 net.cpp:406] pool1 <- conv1
I0929 09:53:43.435020 29621 net.cpp:380] pool1 -> pool1
I0929 09:53:43.435062 29621 net.cpp:122] Setting up pool1
I0929 09:53:43.435070 29621 net.cpp:129] Top shape: 128 96 27 27 (8957952)
I0929 09:53:43.435072 29621 net.cpp:137] Memory required for data: 399557120
I0929 09:53:43.435077 29621 layer_factory.hpp:77] Creating layer norm1
I0929 09:53:43.435096 29621 net.cpp:84] Creating Layer norm1
I0929 09:53:43.435101 29621 net.cpp:406] norm1 <- pool1
I0929 09:53:43.435106 29621 net.cpp:380] norm1 -> norm1
I0929 09:53:43.435251 29621 net.cpp:122] Setting up norm1
I0929 09:53:43.435259 29621 net.cpp:129] Top shape: 128 96 27 27 (8957952)
I0929 09:53:43.435263 29621 net.cpp:137] Memory required for data: 435388928
I0929 09:53:43.435268 29621 layer_factory.hpp:77] Creating layer conv2
I0929 09:53:43.435277 29621 net.cpp:84] Creating Layer conv2
I0929 09:53:43.435281 29621 net.cpp:406] conv2 <- norm1
I0929 09:53:43.435288 29621 net.cpp:380] conv2 -> conv2
I0929 09:53:43.443961 29621 net.cpp:122] Setting up conv2
I0929 09:53:43.443972 29621 net.cpp:129] Top shape: 128 256 27 27 (23887872)
I0929 09:53:43.443977 29621 net.cpp:137] Memory required for data: 530940416
I0929 09:53:43.443986 29621 layer_factory.hpp:77] Creating layer relu2
I0929 09:53:43.443992 29621 net.cpp:84] Creating Layer relu2
I0929 09:53:43.443997 29621 net.cpp:406] relu2 <- conv2
I0929 09:53:43.444003 29621 net.cpp:367] relu2 -> conv2 (in-place)
I0929 09:53:43.444298 29621 net.cpp:122] Setting up relu2
I0929 09:53:43.444308 29621 net.cpp:129] Top shape: 128 256 27 27 (23887872)
I0929 09:53:43.444311 29621 net.cpp:137] Memory required for data: 626491904
I0929 09:53:43.444316 29621 layer_factory.hpp:77] Creating layer pool2
I0929 09:53:43.444324 29621 net.cpp:84] Creating Layer pool2
I0929 09:53:43.444327 29621 net.cpp:406] pool2 <- conv2
I0929 09:53:43.444334 29621 net.cpp:380] pool2 -> pool2
I0929 09:53:43.444367 29621 net.cpp:122] Setting up pool2
I0929 09:53:43.444373 29621 net.cpp:129] Top shape: 128 256 13 13 (5537792)
I0929 09:53:43.444378 29621 net.cpp:137] Memory required for data: 648643072
I0929 09:53:43.444382 29621 layer_factory.hpp:77] Creating layer norm2
I0929 09:53:43.444391 29621 net.cpp:84] Creating Layer norm2
I0929 09:53:43.444394 29621 net.cpp:406] norm2 <- pool2
I0929 09:53:43.444399 29621 net.cpp:380] norm2 -> norm2
I0929 09:53:43.444540 29621 net.cpp:122] Setting up norm2
I0929 09:53:43.444547 29621 net.cpp:129] Top shape: 128 256 13 13 (5537792)
I0929 09:53:43.444551 29621 net.cpp:137] Memory required for data: 670794240
I0929 09:53:43.444556 29621 layer_factory.hpp:77] Creating layer conv3
I0929 09:53:43.444564 29621 net.cpp:84] Creating Layer conv3
I0929 09:53:43.444568 29621 net.cpp:406] conv3 <- norm2
I0929 09:53:43.444576 29621 net.cpp:380] conv3 -> conv3
I0929 09:53:43.465842 29621 net.cpp:122] Setting up conv3
I0929 09:53:43.465864 29621 net.cpp:129] Top shape: 128 384 13 13 (8306688)
I0929 09:53:43.465869 29621 net.cpp:137] Memory required for data: 704020992
I0929 09:53:43.465883 29621 layer_factory.hpp:77] Creating layer relu3
I0929 09:53:43.465890 29621 net.cpp:84] Creating Layer relu3
I0929 09:53:43.465896 29621 net.cpp:406] relu3 <- conv3
I0929 09:53:43.465903 29621 net.cpp:367] relu3 -> conv3 (in-place)
I0929 09:53:43.466192 29621 net.cpp:122] Setting up relu3
I0929 09:53:43.466202 29621 net.cpp:129] Top shape: 128 384 13 13 (8306688)
I0929 09:53:43.466207 29621 net.cpp:137] Memory required for data: 737247744
I0929 09:53:43.466210 29621 layer_factory.hpp:77] Creating layer conv4
I0929 09:53:43.466220 29621 net.cpp:84] Creating Layer conv4
I0929 09:53:43.466224 29621 net.cpp:406] conv4 <- conv3
I0929 09:53:43.466231 29621 net.cpp:380] conv4 -> conv4
I0929 09:53:43.482874 29621 net.cpp:122] Setting up conv4
I0929 09:53:43.482889 29621 net.cpp:129] Top shape: 128 384 13 13 (8306688)
I0929 09:53:43.482893 29621 net.cpp:137] Memory required for data: 770474496
I0929 09:53:43.482902 29621 layer_factory.hpp:77] Creating layer relu4
I0929 09:53:43.482908 29621 net.cpp:84] Creating Layer relu4
I0929 09:53:43.482913 29621 net.cpp:406] relu4 <- conv4
I0929 09:53:43.482919 29621 net.cpp:367] relu4 -> conv4 (in-place)
I0929 09:53:43.483227 29621 net.cpp:122] Setting up relu4
I0929 09:53:43.483235 29621 net.cpp:129] Top shape: 128 384 13 13 (8306688)
I0929 09:53:43.483239 29621 net.cpp:137] Memory required for data: 803701248
I0929 09:53:43.483253 29621 layer_factory.hpp:77] Creating layer conv5
I0929 09:53:43.483263 29621 net.cpp:84] Creating Layer conv5
I0929 09:53:43.483268 29621 net.cpp:406] conv5 <- conv4
I0929 09:53:43.483274 29621 net.cpp:380] conv5 -> conv5
I0929 09:53:43.495182 29621 net.cpp:122] Setting up conv5
I0929 09:53:43.495195 29621 net.cpp:129] Top shape: 128 256 13 13 (5537792)
I0929 09:53:43.495199 29621 net.cpp:137] Memory required for data: 825852416
I0929 09:53:43.495211 29621 layer_factory.hpp:77] Creating layer relu5
I0929 09:53:43.495218 29621 net.cpp:84] Creating Layer relu5
I0929 09:53:43.495223 29621 net.cpp:406] relu5 <- conv5
I0929 09:53:43.495229 29621 net.cpp:367] relu5 -> conv5 (in-place)
I0929 09:53:43.495367 29621 net.cpp:122] Setting up relu5
I0929 09:53:43.495374 29621 net.cpp:129] Top shape: 128 256 13 13 (5537792)
I0929 09:53:43.495378 29621 net.cpp:137] Memory required for data: 848003584
I0929 09:53:43.495383 29621 layer_factory.hpp:77] Creating layer pool5
I0929 09:53:43.495389 29621 net.cpp:84] Creating Layer pool5
I0929 09:53:43.495394 29621 net.cpp:406] pool5 <- conv5
I0929 09:53:43.495400 29621 net.cpp:380] pool5 -> pool5
I0929 09:53:43.495440 29621 net.cpp:122] Setting up pool5
I0929 09:53:43.495447 29621 net.cpp:129] Top shape: 128 256 6 6 (1179648)
I0929 09:53:43.495451 29621 net.cpp:137] Memory required for data: 852722176
I0929 09:53:43.495455 29621 layer_factory.hpp:77] Creating layer fc6
I0929 09:53:43.495476 29621 net.cpp:84] Creating Layer fc6
I0929 09:53:43.495481 29621 net.cpp:406] fc6 <- pool5
I0929 09:53:43.495487 29621 net.cpp:380] fc6 -> fc6
I0929 09:53:44.360297 29621 net.cpp:122] Setting up fc6
I0929 09:53:44.360318 29621 net.cpp:129] Top shape: 128 4096 (524288)
I0929 09:53:44.360321 29621 net.cpp:137] Memory required for data: 854819328
I0929 09:53:44.360327 29621 layer_factory.hpp:77] Creating layer relu6
I0929 09:53:44.360334 29621 net.cpp:84] Creating Layer relu6
I0929 09:53:44.360337 29621 net.cpp:406] relu6 <- fc6
I0929 09:53:44.360342 29621 net.cpp:367] relu6 -> fc6 (in-place)
I0929 09:53:44.360730 29621 net.cpp:122] Setting up relu6
I0929 09:53:44.360739 29621 net.cpp:129] Top shape: 128 4096 (524288)
I0929 09:53:44.360743 29621 net.cpp:137] Memory required for data: 856916480
I0929 09:53:44.360744 29621 layer_factory.hpp:77] Creating layer drop6
I0929 09:53:44.360756 29621 net.cpp:84] Creating Layer drop6
I0929 09:53:44.360759 29621 net.cpp:406] drop6 <- fc6
I0929 09:53:44.360761 29621 net.cpp:367] drop6 -> fc6 (in-place)
I0929 09:53:44.360780 29621 net.cpp:122] Setting up drop6
I0929 09:53:44.360786 29621 net.cpp:129] Top shape: 128 4096 (524288)
I0929 09:53:44.360790 29621 net.cpp:137] Memory required for data: 859013632
I0929 09:53:44.360790 29621 layer_factory.hpp:77] Creating layer fc7
I0929 09:53:44.360795 29621 net.cpp:84] Creating Layer fc7
I0929 09:53:44.360797 29621 net.cpp:406] fc7 <- fc6
I0929 09:53:44.360802 29621 net.cpp:380] fc7 -> fc7
I0929 09:53:44.738289 29621 net.cpp:122] Setting up fc7
I0929 09:53:44.738312 29621 net.cpp:129] Top shape: 128 4096 (524288)
I0929 09:53:44.738314 29621 net.cpp:137] Memory required for data: 861110784
I0929 09:53:44.738320 29621 layer_factory.hpp:77] Creating layer relu7
I0929 09:53:44.738327 29621 net.cpp:84] Creating Layer relu7
I0929 09:53:44.738329 29621 net.cpp:406] relu7 <- fc7
I0929 09:53:44.738334 29621 net.cpp:367] relu7 -> fc7 (in-place)
I0929 09:53:44.738515 29621 net.cpp:122] Setting up relu7
I0929 09:53:44.738521 29621 net.cpp:129] Top shape: 128 4096 (524288)
I0929 09:53:44.738524 29621 net.cpp:137] Memory required for data: 863207936
I0929 09:53:44.738526 29621 layer_factory.hpp:77] Creating layer drop7
I0929 09:53:44.738531 29621 net.cpp:84] Creating Layer drop7
I0929 09:53:44.738533 29621 net.cpp:406] drop7 <- fc7
I0929 09:53:44.738536 29621 net.cpp:367] drop7 -> fc7 (in-place)
I0929 09:53:44.738551 29621 net.cpp:122] Setting up drop7
I0929 09:53:44.738555 29621 net.cpp:129] Top shape: 128 4096 (524288)
I0929 09:53:44.738557 29621 net.cpp:137] Memory required for data: 865305088
I0929 09:53:44.738570 29621 layer_factory.hpp:77] Creating layer fc8
I0929 09:53:44.738576 29621 net.cpp:84] Creating Layer fc8
I0929 09:53:44.738579 29621 net.cpp:406] fc8 <- fc7
I0929 09:53:44.738582 29621 net.cpp:380] fc8 -> fc8
I0929 09:53:44.830261 29621 net.cpp:122] Setting up fc8
I0929 09:53:44.830282 29621 net.cpp:129] Top shape: 128 1000 (128000)
I0929 09:53:44.830286 29621 net.cpp:137] Memory required for data: 865817088
I0929 09:53:44.830292 29621 layer_factory.hpp:77] Creating layer loss
I0929 09:53:44.830297 29621 net.cpp:84] Creating Layer loss
I0929 09:53:44.830301 29621 net.cpp:406] loss <- fc8
I0929 09:53:44.830304 29621 net.cpp:406] loss <- label
I0929 09:53:44.830310 29621 net.cpp:380] loss -> loss
I0929 09:53:44.842947 29621 layer_factory.hpp:77] Creating layer loss
…
I0929 09:53:44.844395 29621 net.cpp:294] The NetState phase (1) differed from the phase (0) specified by a rule in layer data
I0929 09:53:44.844527 29621 net.cpp:51] Initializing net from parameters: 
name: "pulmonaryNodulesNet"
state {
  phase: TEST
}
layer {
  name: "data"
  type: "Data"
  top: "data"
  top: "label"
  include {
    phase: TEST
  }
  transform_param {
    mirror: false
    crop_size: 224
    mean_file: "data/pulmonary_nodules/pulmonary_nodules_net_mean.binaryproto"
  }
  data_param {
    source: "examples/pulmonary_nodules_net/pulmonary_nodules_val_lmdb"
    batch_size: 25
    backend: LMDB
  }
}
layer {
  name: "conv1"
  type: "Convolution"
  bottom: "data"
  top: "conv1"
  param {
    lr_mult: 1
    decay_mult: 1
  }
  param {
    lr_mult: 2
    decay_mult: 0
  }
  convolution_param {
    num_output: 96
    kernel_size: 11
    stride: 4
    weight_filler {
      type: "gaussian"
      std: 0.01
    }
    bias_filler {
      type: "constant"
      value: 0
    }
  }
}
layer {
  name: "relu1"
  type: "ReLU"
  bottom: "conv1"
  top: "conv1"
}
layer {
  name: "pool1"
  type: "Pooling"
  bottom: "conv1"
  top: "pool1"
  pooling_param {
    pool: MAX
    kernel_size: 3
    stride: 2
  }
}
layer {
  name: "norm1"
  type: "LRN"
  bottom: "pool1"
  top: "norm1"
  lrn_param {
    local_size: 5
    alpha: 0.0001
    beta: 0.75
  }
}
layer {
  name: "conv2"
  type: "Convolution"
  bottom: "norm1"
  top: "conv2"
  param {
    lr_mult: 1
    decay_mult: 1
  }
  param {
    lr_mult: 2
    decay_mult: 0
  }
  convolution_param {
    num_output: 256
    pad: 2
    kernel_size: 5
    group: 2
    weight_filler {
      type: "gaussian"
      std: 0.01
    }
    bias_filler {
      type: "constant"
      value: 1
    }
  }
}
layer {
  name: "relu2"
  type: "ReLU"
  bottom: "conv2"
  top: "conv2"
}
layer {
  name: "pool2"
  type: "Pooling"
  bottom: "conv2"
  top: "pool2"
  pooling_param {
    pool: MAX
    kernel_size: 3
    stride: 2
  }
}
layer {
  name: "norm2"
  type: "LRN"
  bottom: "pool2"
  top: "norm2"
  lrn_param {
    local_size: 5
    alpha: 0.0001
    beta: 0.75
  }
}
layer {
  name: "conv3"
  type: "Convolution"
  bottom: "norm2"
  top: "conv3"
  param {
    lr_mult: 1
    decay_mult: 1
  }
  param {
    lr_mult: 2
    decay_mult: 0
  }
  convolution_param {
    num_output: 384
    pad: 1
    kernel_size: 3
    weight_filler {
      type: "gaussian"
      std: 0.01
    }
    bias_filler {
      type: "constant"
      value: 0
    }
  }
}
layer {
  name: "relu3"
  type: "ReLU"
  bottom: "conv3"
  top: "conv3"
}
layer {
  name: "conv4"
  type: "Convolution"
  bottom: "conv3"
  top: "conv4"
  param {
    lr_mult: 1
    decay_mult: 1
  }
  param {
    lr_mult: 2
    decay_mult: 0
  }
  convolution_param {
    num_output: 384
    pad: 1
    kernel_size: 3
    group: 2
    weight_filler {
      type: "gaussian"
      std: 0.01
    }
    bias_filler {
      type: "constant"
      value: 1
    }
  }
}
layer {
  name: "relu4"
  type: "ReLU"
  bottom: "conv4"
  top: "conv4"
}
layer {
  name: "conv5"
  type: "Convolution"
  bottom: "conv4"
  top: "conv5"
  param {
    lr_mult: 1
    decay_mult: 1
  }
  param {
    lr_mult: 2
    decay_mult: 0
  }
  convolution_param {
    num_output: 256
    pad: 1
    kernel_size: 3
    group: 2
    weight_filler {
      type: "gaussian"
      std: 0.01
    }
    bias_filler {
      type: "constant"
      value: 1
    }
  }
}
layer {
  name: "relu5"
  type: "ReLU"
  bottom: "conv5"
  top: "conv5"
}
layer {
  name: "pool5"
  type: "Pooling"
  bottom: "conv5"
  top: "pool5"
  pooling_param {
    pool: MAX
    kernel_size: 3
    stride: 2
  }
}
layer {
  name: "fc6"
  type: "InnerProduct"
  bottom: "pool5"
  top: "fc6"
  param {
    lr_mult: 1
    decay_mult: 1
  }
  param {
    lr_mult: 2
    decay_mult: 0
  }
  inner_product_param {
    num_output: 4096
    weight_filler {
      type: "gaussian"
      std: 0.005
    }
    bias_filler {
      type: "constant"
      value: 1
    }
  }
}
layer {
  name: "relu6"
  type: "ReLU"
  bottom: "fc6"
  top: "fc6"
}
layer {
  name: "drop6"
  type: "Dropout"
  bottom: "fc6"
  top: "fc6"
  dropout_param {
    dropout_ratio: 0.5
  }
}
layer {
  name: "fc7"
  type: "InnerProduct"
  bottom: "fc6"
  top: "fc7"
  param {
    lr_mult: 1
    decay_mult: 1
  }
  param {
    lr_mult: 2
    decay_mult: 0
  }
  inner_product_param {
    num_output: 4096
    weight_filler {
      type: "gaussian"
      std: 0.005
    }
    bias_filler {
      type: "constant"
      value: 1
    }
  }
}
layer {
  name: "relu7"
  type: "ReLU"
  bottom: "fc7"
  top: "fc7"
}
layer {
  name: "drop7"
  type: "Dropout"
  bottom: "fc7"
  top: "fc7"
  dropout_param {
    dropout_ratio: 0.5
  }
}
layer {
  name: "fc8"
  type: "InnerProduct"
  bottom: "fc7"
  top: "fc8"
  param {
    lr_mult: 1
    decay_mult: 1
  }
  param {
    lr_mult: 2
    decay_mult: 0
  }
  inner_product_param {
    num_output: 1000
    weight_filler {
      type: "gaussian"
      std: 0.01
    }
    bias_filler {
      type: "constant"
      value: 0
    }
  }
}
layer {
  name: "accuracy"
  type: "Accuracy"
  bottom: "fc8"
  bottom: "label"
  top: "accuracy"
  include {
    phase: TEST
  }
}
layer {
  name: "loss"
  type: "SoftmaxWithLoss"
  bottom: "fc8"
  bottom: "label"
  top: "loss"
}
I0929 09:53:44.844610 29621 layer_factory.hpp:77] Creating layer data
I0929 09:53:44.844648 29621 db_lmdb.cpp:35] Opened lmdb examples/pulmonary_nodules_net/pulmonary_nodules_val_lmdb
I0929 09:53:44.844658 29621 net.cpp:84] Creating Layer data
I0929 09:53:44.844662 29621 net.cpp:380] data -> data
I0929 09:53:44.844668 29621 net.cpp:380] data -> label
I0929 09:53:44.844674 29621 data_transformer.cpp:25] Loading mean file from: data/pulmonary_nodules/pulmonary_nodules_net_mean.binaryproto
I0929 09:53:44.846004 29621 data_layer.cpp:45] output data size: 25,3,224,224
I0929 09:53:44.868695 29621 net.cpp:122] Setting up data
I0929 09:53:44.868716 29621 net.cpp:129] Top shape: 25 3 224 224 (3763200)
I0929 09:53:44.868719 29621 net.cpp:129] Top shape: 25 (25)
I0929 09:53:44.868721 29621 net.cpp:137] Memory required for data: 15052900
I0929 09:53:44.868726 29621 layer_factory.hpp:77] Creating layer label_data_1_split
I0929 09:53:44.868732 29621 net.cpp:84] Creating Layer label_data_1_split
I0929 09:53:44.868736 29621 net.cpp:406] label_data_1_split <- label
I0929 09:53:44.868741 29621 net.cpp:380] label_data_1_split -> label_data_1_split_0
I0929 09:53:44.868746 29621 net.cpp:380] label_data_1_split -> label_data_1_split_1
I0929 09:53:44.868847 29621 net.cpp:122] Setting up label_data_1_split
I0929 09:53:44.868858 29621 net.cpp:129] Top shape: 25 (25)
I0929 09:53:44.868862 29621 net.cpp:129] Top shape: 25 (25)
I0929 09:53:44.868865 29621 net.cpp:137] Memory required for data: 15053100
I0929 09:53:44.868866 29621 layer_factory.hpp:77] Creating layer conv1
I0929 09:53:44.868875 29621 net.cpp:84] Creating Layer conv1
I0929 09:53:44.868877 29621 net.cpp:406] conv1 <- data
I0929 09:53:44.868881 29621 net.cpp:380] conv1 -> conv1
I0929 09:53:44.871676 29621 net.cpp:122] Setting up conv1
I0929 09:53:44.871688 29621 net.cpp:129] Top shape: 25 96 54 54 (6998400)
I0929 09:53:44.871691 29621 net.cpp:137] Memory required for data: 43046700
I0929 09:53:44.871700 29621 layer_factory.hpp:77] Creating layer relu1
I0929 09:53:44.871703 29621 net.cpp:84] Creating Layer relu1
I0929 09:53:44.871706 29621 net.cpp:406] relu1 <- conv1
I0929 09:53:44.871709 29621 net.cpp:367] relu1 -> conv1 (in-place)
I0929 09:53:44.872012 29621 net.cpp:122] Setting up relu1
I0929 09:53:44.872020 29621 net.cpp:129] Top shape: 25 96 54 54 (6998400)
I0929 09:53:44.872023 29621 net.cpp:137] Memory required for data: 71040300
I0929 09:53:44.872025 29621 layer_factory.hpp:77] Creating layer pool1
I0929 09:53:44.872030 29621 net.cpp:84] Creating Layer pool1
I0929 09:53:44.872032 29621 net.cpp:406] pool1 <- conv1
I0929 09:53:44.872035 29621 net.cpp:380] pool1 -> pool1
I0929 09:53:44.872068 29621 net.cpp:122] Setting up pool1
I0929 09:53:44.872072 29621 net.cpp:129] Top shape: 25 96 27 27 (1749600)
I0929 09:53:44.872076 29621 net.cpp:137] Memory required for data: 78038700
I0929 09:53:44.872077 29621 layer_factory.hpp:77] Creating layer norm1
I0929 09:53:44.872081 29621 net.cpp:84] Creating Layer norm1
I0929 09:53:44.872083 29621 net.cpp:406] norm1 <- pool1
I0929 09:53:44.872087 29621 net.cpp:380] norm1 -> norm1
I0929 09:53:44.872225 29621 net.cpp:122] Setting up norm1
I0929 09:53:44.872231 29621 net.cpp:129] Top shape: 25 96 27 27 (1749600)
I0929 09:53:44.872233 29621 net.cpp:137] Memory required for data: 85037100
I0929 09:53:44.872236 29621 layer_factory.hpp:77] Creating layer conv2
I0929 09:53:44.872241 29621 net.cpp:84] Creating Layer conv2
I0929 09:53:44.872243 29621 net.cpp:406] conv2 <- norm1
I0929 09:53:44.872246 29621 net.cpp:380] conv2 -> conv2
I0929 09:53:44.880774 29621 net.cpp:122] Setting up conv2
I0929 09:53:44.880785 29621 net.cpp:129] Top shape: 25 256 27 27 (4665600)
I0929 09:53:44.880789 29621 net.cpp:137] Memory required for data: 103699500
I0929 09:53:44.880795 29621 layer_factory.hpp:77] Creating layer relu2
I0929 09:53:44.880798 29621 net.cpp:84] Creating Layer relu2
I0929 09:53:44.880813 29621 net.cpp:406] relu2 <- conv2
I0929 09:53:44.880817 29621 net.cpp:367] relu2 -> conv2 (in-place)
I0929 09:53:44.881112 29621 net.cpp:122] Setting up relu2
I0929 09:53:44.881120 29621 net.cpp:129] Top shape: 25 256 27 27 (4665600)
I0929 09:53:44.881122 29621 net.cpp:137] Memory required for data: 122361900
I0929 09:53:44.881125 29621 layer_factory.hpp:77] Creating layer pool2
I0929 09:53:44.881130 29621 net.cpp:84] Creating Layer pool2
I0929 09:53:44.881132 29621 net.cpp:406] pool2 <- conv2
I0929 09:53:44.881135 29621 net.cpp:380] pool2 -> pool2
I0929 09:53:44.881167 29621 net.cpp:122] Setting up pool2
I0929 09:53:44.881171 29621 net.cpp:129] Top shape: 25 256 13 13 (1081600)
I0929 09:53:44.881175 29621 net.cpp:137] Memory required for data: 126688300
I0929 09:53:44.881176 29621 layer_factory.hpp:77] Creating layer norm2
I0929 09:53:44.881180 29621 net.cpp:84] Creating Layer norm2
I0929 09:53:44.881181 29621 net.cpp:406] norm2 <- pool2
I0929 09:53:44.881184 29621 net.cpp:380] norm2 -> norm2
I0929 09:53:44.881490 29621 net.cpp:122] Setting up norm2
I0929 09:53:44.881497 29621 net.cpp:129] Top shape: 25 256 13 13 (1081600)
I0929 09:53:44.881500 29621 net.cpp:137] Memory required for data: 131014700
I0929 09:53:44.881502 29621 layer_factory.hpp:77] Creating layer conv3
I0929 09:53:44.881507 29621 net.cpp:84] Creating Layer conv3
I0929 09:53:44.881510 29621 net.cpp:406] conv3 <- norm2
I0929 09:53:44.881515 29621 net.cpp:380] conv3 -> conv3
I0929 09:53:44.903380 29621 net.cpp:122] Setting up conv3
I0929 09:53:44.903399 29621 net.cpp:129] Top shape: 25 384 13 13 (1622400)
I0929 09:53:44.903403 29621 net.cpp:137] Memory required for data: 137504300
I0929 09:53:44.903411 29621 layer_factory.hpp:77] Creating layer relu3
I0929 09:53:44.903417 29621 net.cpp:84] Creating Layer relu3
I0929 09:53:44.903420 29621 net.cpp:406] relu3 <- conv3
I0929 09:53:44.903425 29621 net.cpp:367] relu3 -> conv3 (in-place)
I0929 09:53:44.903574 29621 net.cpp:122] Setting up relu3
I0929 09:53:44.903583 29621 net.cpp:129] Top shape: 25 384 13 13 (1622400)
I0929 09:53:44.903585 29621 net.cpp:137] Memory required for data: 143993900
I0929 09:53:44.903587 29621 layer_factory.hpp:77] Creating layer conv4
I0929 09:53:44.903594 29621 net.cpp:84] Creating Layer conv4
I0929 09:53:44.903596 29621 net.cpp:406] conv4 <- conv3
I0929 09:53:44.903600 29621 net.cpp:380] conv4 -> conv4
I0929 09:53:44.919988 29621 net.cpp:122] Setting up conv4
I0929 09:53:44.920002 29621 net.cpp:129] Top shape: 25 384 13 13 (1622400)
I0929 09:53:44.920006 29621 net.cpp:137] Memory required for data: 150483500
I0929 09:53:44.920009 29621 layer_factory.hpp:77] Creating layer relu4
I0929 09:53:44.920016 29621 net.cpp:84] Creating Layer relu4
I0929 09:53:44.920017 29621 net.cpp:406] relu4 <- conv4
I0929 09:53:44.920022 29621 net.cpp:367] relu4 -> conv4 (in-place)
I0929 09:53:44.920459 29621 net.cpp:122] Setting up relu4
I0929 09:53:44.920467 29621 net.cpp:129] Top shape: 25 384 13 13 (1622400)
I0929 09:53:44.920470 29621 net.cpp:137] Memory required for data: 156973100
I0929 09:53:44.920472 29621 layer_factory.hpp:77] Creating layer conv5
I0929 09:53:44.920478 29621 net.cpp:84] Creating Layer conv5
I0929 09:53:44.920480 29621 net.cpp:406] conv5 <- conv4
I0929 09:53:44.920485 29621 net.cpp:380] conv5 -> conv5
I0929 09:53:44.933130 29621 net.cpp:122] Setting up conv5
I0929 09:53:44.933147 29621 net.cpp:129] Top shape: 25 256 13 13 (1081600)
I0929 09:53:44.933151 29621 net.cpp:137] Memory required for data: 161299500
I0929 09:53:44.933157 29621 layer_factory.hpp:77] Creating layer relu5
I0929 09:53:44.933163 29621 net.cpp:84] Creating Layer relu5
I0929 09:53:44.933166 29621 net.cpp:406] relu5 <- conv5
I0929 09:53:44.933171 29621 net.cpp:367] relu5 -> conv5 (in-place)
I0929 09:53:44.933292 29621 net.cpp:122] Setting up relu5
I0929 09:53:44.933298 29621 net.cpp:129] Top shape: 25 256 13 13 (1081600)
I0929 09:53:44.933300 29621 net.cpp:137] Memory required for data: 165625900
I0929 09:53:44.933303 29621 layer_factory.hpp:77] Creating layer pool5
I0929 09:53:44.933318 29621 net.cpp:84] Creating Layer pool5
I0929 09:53:44.933321 29621 net.cpp:406] pool5 <- conv5
I0929 09:53:44.933326 29621 net.cpp:380] pool5 -> pool5
I0929 09:53:44.933357 29621 net.cpp:122] Setting up pool5
I0929 09:53:44.933362 29621 net.cpp:129] Top shape: 25 256 6 6 (230400)
I0929 09:53:44.933364 29621 net.cpp:137] Memory required for data: 166547500
I0929 09:53:44.933367 29621 layer_factory.hpp:77] Creating layer fc6
I0929 09:53:44.933372 29621 net.cpp:84] Creating Layer fc6
I0929 09:53:44.933373 29621 net.cpp:406] fc6 <- pool5
I0929 09:53:44.933377 29621 net.cpp:380] fc6 -> fc6
I0929 09:53:45.770174 29621 net.cpp:122] Setting up fc6
I0929 09:53:45.770198 29621 net.cpp:129] Top shape: 25 4096 (102400)
I0929 09:53:45.770201 29621 net.cpp:137] Memory required for data: 166957100
I0929 09:53:45.770208 29621 layer_factory.hpp:77] Creating layer relu6
I0929 09:53:45.770215 29621 net.cpp:84] Creating Layer relu6
I0929 09:53:45.770218 29621 net.cpp:406] relu6 <- fc6
I0929 09:53:45.770222 29621 net.cpp:367] relu6 -> fc6 (in-place)
I0929 09:53:45.770612 29621 net.cpp:122] Setting up relu6
I0929 09:53:45.770620 29621 net.cpp:129] Top shape: 25 4096 (102400)
I0929 09:53:45.770623 29621 net.cpp:137] Memory required for data: 167366700
I0929 09:53:45.770625 29621 layer_factory.hpp:77] Creating layer drop6
I0929 09:53:45.770630 29621 net.cpp:84] Creating Layer drop6
I0929 09:53:45.770632 29621 net.cpp:406] drop6 <- fc6
I0929 09:53:45.770635 29621 net.cpp:367] drop6 -> fc6 (in-place)
I0929 09:53:45.770658 29621 net.cpp:122] Setting up drop6
I0929 09:53:45.770663 29621 net.cpp:129] Top shape: 25 4096 (102400)
I0929 09:53:45.770664 29621 net.cpp:137] Memory required for data: 167776300
I0929 09:53:45.770666 29621 layer_factory.hpp:77] Creating layer fc7
I0929 09:53:45.770671 29621 net.cpp:84] Creating Layer fc7
I0929 09:53:45.770674 29621 net.cpp:406] fc7 <- fc6
I0929 09:53:45.770678 29621 net.cpp:380] fc7 -> fc7
I0929 09:53:46.144608 29621 net.cpp:122] Setting up fc7
I0929 09:53:46.144629 29621 net.cpp:129] Top shape: 25 4096 (102400)
I0929 09:53:46.144632 29621 net.cpp:137] Memory required for data: 168185900
I0929 09:53:46.144639 29621 layer_factory.hpp:77] Creating layer relu7
I0929 09:53:46.144644 29621 net.cpp:84] Creating Layer relu7
I0929 09:53:46.144646 29621 net.cpp:406] relu7 <- fc7
I0929 09:53:46.144651 29621 net.cpp:367] relu7 -> fc7 (in-place)
I0929 09:53:46.145036 29621 net.cpp:122] Setting up relu7
I0929 09:53:46.145045 29621 net.cpp:129] Top shape: 25 4096 (102400)
I0929 09:53:46.145047 29621 net.cpp:137] Memory required for data: 168595500
I0929 09:53:46.145050 29621 layer_factory.hpp:77] Creating layer drop7
I0929 09:53:46.145054 29621 net.cpp:84] Creating Layer drop7
I0929 09:53:46.145056 29621 net.cpp:406] drop7 <- fc7
I0929 09:53:46.145059 29621 net.cpp:367] drop7 -> fc7 (in-place)
I0929 09:53:46.145082 29621 net.cpp:122] Setting up drop7
I0929 09:53:46.145094 29621 net.cpp:129] Top shape: 25 4096 (102400)
I0929 09:53:46.145097 29621 net.cpp:137] Memory required for data: 169005100
I0929 09:53:46.145098 29621 layer_factory.hpp:77] Creating layer fc8
I0929 09:53:46.145103 29621 net.cpp:84] Creating Layer fc8
I0929 09:53:46.145105 29621 net.cpp:406] fc8 <- fc7
I0929 09:53:46.145108 29621 net.cpp:380] fc8 -> fc8
I0929 09:53:46.236318 29621 net.cpp:122] Setting up fc8
I0929 09:53:46.236340 29621 net.cpp:129] Top shape: 25 1000 (25000)
I0929 09:53:46.236343 29621 net.cpp:137] Memory required for data: 169105100
I0929 09:53:46.236351 29621 layer_factory.hpp:77] Creating layer fc8_fc8_0_split
I0929 09:53:46.236356 29621 net.cpp:84] Creating Layer fc8_fc8_0_split
I0929 09:53:46.236359 29621 net.cpp:406] fc8_fc8_0_split <- fc8
I0929 09:53:46.236363 29621 net.cpp:380] fc8_fc8_0_split -> fc8_fc8_0_split_0
I0929 09:53:46.236369 29621 net.cpp:380] fc8_fc8_0_split -> fc8_fc8_0_split_1
I0929 09:53:46.236405 29621 net.cpp:122] Setting up fc8_fc8_0_split
I0929 09:53:46.236410 29621 net.cpp:129] Top shape: 25 1000 (25000)
I0929 09:53:46.236413 29621 net.cpp:129] Top shape: 25 1000 (25000)
I0929 09:53:46.236424 29621 net.cpp:137] Memory required for data: 169305100
I0929 09:53:46.236428 29621 layer_factory.hpp:77] Creating layer accuracy
I0929 09:53:46.236431 29621 net.cpp:84] Creating Layer accuracy
I0929 09:53:46.236433 29621 net.cpp:406] accuracy <- fc8_fc8_0_split_0
I0929 09:53:46.236436 29621 net.cpp:406] accuracy <- label_data_1_split_0
I0929 09:53:46.236439 29621 net.cpp:380] accuracy -> accuracy
…
